models/NN-large.pth (torch, 546391 bytes, 6 tensors)

linear_relu_stack.0.weight f4 [128, 784]
00000000: aa1e d03c 6794 073e 2c54 043e 63f4 203d
00000010: 0ff3 633e 18ab 5f3e 828d b13e e8c9 8a3e
00000020: d6d8 a1bc 834b b13d 8064 cb3d 2682 303e
00000030: a7ec 963d 4b8b adbd 44fb 2abe bc3d 25be
00000040: 49e5 803c a788 a33e d09f 883e 127c 743e
00000050: f577 6abc 9653 973c 266e cb3e ceda 6b3e
00000060: df79 26be 4bdf 44bd 439c 313e f906 ce3c
00000070: 2b1a 73bb 60ca 283e c4ad af3d 8b86 283b
00000080: c035 193e 446d 503e 90bf 2b3e d35e 0d3e
00000090: e289 8d3d 4649 98bc 1abd adbd 6644 413e
000000a0: 4b55 e3bc 18ab 4dbe dad8 33be b14f 1bbe
000000b0: ba42 99bd 51c7 a73d 082a f33b 9c43 ee3d
000000c0: 3099 043d dc60 093c 0a58 5c3e e5a2 883e
000000d0: 91a2 8d3e f005 513e 85c5 bb3e 1cd9 5e3e
000000e0: d6fb 4cbc 64fd 013e 9423 513d ee2f 28bd
000000f0: f039 2d3e ab9f 323c 98a2 dd3d 13c7 7b3e
00000100: 65c2 063e e799 a23d 2dc4 49bd 1279 413e
00000110: afcb 263d a693 16be db1b 4c3d 54ce 88bd
00000120: 867a e1bd cc1d d83c b303 a33d 5a4a 50bc
00000130: c12c 0cbd 5a1c 53bd e931 043e 8107 3e3e
00000140: f64c e93d 1fcb 2a3e 0407 933d 6a33 0d3e
00000150: 14d6 9dbd 7fd2 1cbd 6046 5e3c 74a6 66bd
00000160: d2b2 0e3d 1306 2bbd 507d 583d bbc4 cd3d
00000170: a513 263d f600 1f3e 84b0 a93c e3c7 ab3c
00000180: d973 b7bc b8d2 bcbd 8bc4 cb3c 0d2d 35be
00000190: 10c6 5a3c faa7 223e ad4f 953d da21 833c
000001a0: c0a7 5ebd 90f4 1abe 7e38 a6bd d1be 62bc
000001b0: 5c10 70bd 4ca8 32bc 79c8 70bd 7613 673d
000001c0: 09fc 3b3d 9730 003d ecdb 1f3d 61fc d8bc
000001d0: 81d8 2b3d 1088 cfbc 1bf4 2ebd 4042 13bd
000001e0: b965 88bd 0b37 0c3e 196e 103c 163a f8bd
000001f0: cbb8 05be b578 b2bd e53c abbd 9aac 53be
00000200: 0848 893d 7a1d 1d3e c55d 883e 617f e33d
00000210: ec4a b0bb f494 e93b 5579 813d 5729 a5bd
00000220: bb30 cabd 7a67 cdbd d6b8 35be ca7f 91bd
00000230: abd6 d43c 1760 553c e08f 1f3d d6b0 1fbd
00000240: 296e c0bc 1b5e 76bd ee3f 61bc 7cd7 08be
00000250: 5880 87be 36ed 92bc efff 6bbe 73ce 10be
00000260: 4664 a8bd e2ca 10be 8132 0dbe a0ab e63c
00000270: e739 783d 5e56 103e f7cc 933e 685e a13d
00000280: 6c06 2ebd b926 dd3d ae45 2cbd c3a5 dfbc
00000290: 9bac b5bc 7a12 fcbd 974b f5bd b033 ec3d
000002a0: 3f2f 493c 745a 203d 6aaf 62bd 4378 14bc
000002b0: cf4e b73c bded bbbd 5e64 4bbe 5589 babe
000002c0: d949 a7be 1281 94be c44c 25be 7d10 353d
000002d0: e16a 44bd 589b 843c eb73 a03d 7d3c bcbb
000002e0: fec5 b23d aac6 193e aa50 ed3d 1021 913d
000002f0: 4a8e 02bd e140 6abd 757e a4bd d9c8 cc3c
00000300: 777f 863c aa60 31be e0cf 0bbd 93e0 9b3d
00000310: 507a e83c 42ca 5ebb d577 8abc b3f6 0bbd
00000320: 5077 b5bc 274a 64bd e451 65be 4044 7abe
00000330: fa2a d4be 9988 bdbe aa87 43be a0a7 8fbb
00000340: b851 8fbc 072b 473d 5f76 fd3d 8ace 1d3e
00000350: 7765 173e e4b7 543e 215b 6c3e 1142 423e
00000360: 195a 50bd eb6e d7bd eb6e 18bd a065 c03d
00000370: b46a d33c 4b85 ab3b c599 8c3c 42df 803d
00000380: 8e7e 393c 3299 c03c 5545 98bd ef44 14be
00000390: 4cdf 6abd e062 0dbe 2df6 69be f2a5 7dbe
000003a0: 08e6 c1be 5510 a4be 0117 92be 463d 7cbe
000003b0: 52d3 a4bd 0f96 06be 90ad 563c 8a8d b83d
000003c0: 825c 67bc 811b 183e 26ba 513e bb29 1abd
000003d0: 009f 0abe 73aa 0ebe 2809 15be 2714 d0bd
000003e0: 767e 8a3d da63 913d 1706 3a3e 98e2 033e
000003f0: 1d45 093d 9b16 3cbd 49c9 73be 20a4 55be
0.025405247 0.13240205 0.12922734 0.039295565 0.22260688 0.21842611 0.34678274 0.27107167
-0.019756716 0.08656981 0.09931278 0.17237148 0.073693566 -0.08473834 -0.16697413 -0.16136831
0.015734332 0.31940195 0.26684427 0.23875454 -0.014310827 0.018472474 0.39732474 0.23032686
-0.16257428 -0.04806451 0.17344765 0.02514981 -0.0037094455 0.1648345 0.08578065 0.002571496
0.1496191 0.20354182 0.16772294 0.13805704 0.06911065 -0.018589627 -0.08483334 0.18873748
-0.027750632 -0.20084798 -0.17563191 -0.15167119 -0.0748343 0.081923135 0.007420782 0.11633989
0.032372653 0.0083849095 0.21517959 0.2668678 0.2766309 0.20412421 0.36674133 0.21762508
-0.012511214 0.12694317 0.05105932 -0.041061334 0.16916633 0.010902326 0.10822028 0.2458766
0.13160093 0.07939511 -0.049259353 0.18893841 0.04072159 -0.14704761 0.049831253 -0.06679979
-0.110096976 0.026381396 0.0795969 -0.012713039 -0.03422237 -0.05154071 0.12909664 0.1855755
0.11391632 0.16679047 0.071790725 0.13789144 -0.07706848 -0.038286682 0.013566583 -0.056311086
0.034838505 -0.04175384 0.052853882 0.10047289 0.04054608 0.1552771 0.020714052 0.020969337
-0.022394108 -0.09219879 0.024873992 -0.17692967 0.013352886 0.1588439 0.072905876 0.016007353
-0.054359198 -0.15132356 -0.08116244 -0.0138394395 -0.05860935 -0.010904383 -0.058784936 0.056415044
0.045894656 0.03129634 0.039028093 -0.026487531 0.04195452 -0.025333434 -0.042713266 -0.035951853
-0.06660027 0.13692872 0.008815312 -0.12120454 -0.13058774 -0.08714429 -0.08361224 -0.20671311
0.06703192 0.15343276 0.2663404 0.1110828 -0.005380025 0.0071283523 0.063219704 -0.080645256
-0.09872576 -0.10029502 -0.1774629 -0.07104452 0.025981268 0.013023398 0.03895557 -0.038987003
-0.023490028 -0.06014834 -0.013748152 -0.13363451 -0.26465106 -0.017935377 -0.2304685 -0.14141254
-0.08222251 -0.14139894 -0.13788797 0.028158009 0.060602095 0.14095446 0.28867313 0.07879335
-0.042486593 0.107984014 -0.04205864 -0.027300721 -0.022177031 -0.123082116 -0.11977308 0.11533296
0.012279331 0.039148763 -0.05534307 -0.009061876 0.022376446 -0.09176204 -0.19862506 -0.364329
-0.3267353 -0.29004723 -0.16142565 0.044205178 -0.04795349 0.016187355 0.078346096 -0.0057445155
0.0872917 0.1501719 0.11587651 0.07086384 -0.03187398 -0.05719078 -0.08031932 0.024998115
0.016418202 -0.1732203 -0.034133792 0.076111935 0.028378636 -0.0033995067 -0.016902843 -0.034170818
-0.02215162 -0.05573478 -0.2239452 -0.24440098 -0.4143904 -0.37018278 -0.1909472 -0.004383996
-0.017495021 0.04862502 0.12376093 0.1541082 0.147848 0.20773274 0.23081638 0.18970515
-0.050867174 -0.10519203 -0.037215155 0.093943834 0.025807716 0.0052343956 0.017163167 0.06292583
0.011321677 0.02351055 -0.07435099 -0.14479421 -0.05734186 -0.13807249 -0.22847815 -0.24770334
-0.37870812 -0.3204371 -0.28533176 -0.24632749 -0.08048119 -0.1314318 0.013102904 0.090113714
-0.014121177 0.14854242 0.20481166 -0.037637454 -0.13537216 -0.13932209 -0.14554274 -0.10160094
0.06762402 0.07099123 0.18166386 0.12879407 0.033513177 -0.045919996 -0.23807253 -0.2086339

linear_relu_stack.0.bias f4 [128]
00000000: f7bb 9f3e bd65 823b eeea 03bd 1c2a 2bbe
00000010: 2a10 a83d 6e93 7b3c c37f da3e 4c2b b83e
00000020: eca4 27bd 90eb 97bd b55b 54be db27 d1bc
00000030: 30c5 33bd 543c d53d 143d 7d3e edb8 ad3e
00000040: 3cba f6bc a84f 8d3e 2c37 4e3e 2466 eb3d
00000050: 7a76 99bd c840 323e adda 623e ec40 073d
00000060: 0abf 8d3e 5e88 883c b972 40be 2d23 be3d
00000070: fb8f 76be 67eb 053e bf77 cbbb 1aff 1e3e
00000080: a6af f33e bc1b 753e bf38 a03d 30f4 ca3d
00000090: 6165 f73d 2511 18be 071c f83d 4604 a33e
000000a0: 988f 133e 0cee 8d3e 7204 abbe c682 8e3e
000000b0: 0ff3 443e a871 d4bd 5275 c83e 2fcf 753e
000000c0: 8f22 193e 94aa f4bd 3fbb 093c 00b0 613c
000000d0: ada5 b63e 2c5f 553e 850c 3e3c dc8e b73c
000000e0: 1a10 ea3e fdf2 a23d 833a 363e aa11 9fbc
000000f0: b418 4e3e cc8d 3b3e 32ec 4cbd b6bf 61be
00000100: ea93 3abd 9782 5fbc d6c6 ac3e 0ee9 d43d
00000110: dd9a 503e 6fad f03e 2ee9 f83e 3231 f0b9
00000120: dda3 543c e148 a13e d0ab 1dbd 326e 10bd
00000130: 3575 103e 8176 b1be eee1 253e 0230 343e
00000140: 3b66 a6bd 030e 003d 97ac 45be 68c5 a73e
00000150: cf13 c83e 382a 7f3e 3edb 8a3e 6c01 1bbd
00000160: 2d06 b73e 9de0 f83d 6967 10be b547 143e
00000170: 046e 0a3b 612d b23e 40fe c9be fac8 df3c
00000180: 6977 9b3e 14cc 64bd 2ed6 963c 8fd3 a43e
00000190: 1d72 f23d 10c7 d53d 3864 02bd ffe2 9a3e
000001a0: 1589 a43e dae2 1b3c 13a4 fabd e5b2 733e
000001b0: c31e 203f a4fc 373e b6bc 133e ad81 a13e
000001c0: 6757 893e 4d21 eabe 36e3 b8bd f638 bf3d
000001d0: deec 67bc a1fa f73e 2f37 0b3d 2b49 8d3e
000001e0: 59c7 2cbe 41a0 b8bc ecc7 043d fc05 65be
000001f0: 1ee2 7e3d e148 0e3e 1816 c93e 4a1d 57bd
0.31198093 0.0039794133 -0.03220647 -0.16715282 0.08206208 0.015354974 0.426756 0.35970533
-0.040928766 -0.07417977 -0.20738108 -0.0255317 -0.043889225 0.10411897 0.2473033 0.3393015
-0.0301181 0.27599835 0.20138234 0.11494091 -0.07493301 0.17407525 0.2215373 0.0330209
0.27684814 0.016666587 -0.18793763 0.09284053 -0.24078362 0.1307808 -0.006209343 0.15527001
0.47594947 0.23936361 0.078233235 0.09909856 0.12079883 -0.1485029 0.12114721 0.31839198
0.14410245 0.27720678 -0.3340183 0.27834147 0.19233344 -0.10373241 0.39152008 0.24004816
0.1495459 -0.11946598 0.008406459 0.013774872 0.35673276 0.20837086 0.011599665 0.022406988
0.4571541 0.079565026 0.17795758 -0.019417603 0.20126611 0.1831581 -0.05002994 -0.22045788
-0.045551218 -0.013641975 0.3374545 0.10396014 0.20371576 0.4700732 0.48615402 -0.0004581302
0.012978521 0.31500915 -0.03849393 -0.03526134 0.14107211 -0.34660724 0.16199467 0.17596439
-0.08124968 0.031263363 -0.19304119 0.32767797 0.39077613 0.24918449 0.27120394 -0.037843153
0.357469 0.121522166 -0.14101948 0.14480479 0.0021122703 0.34800246 -0.3945179 0.027317513
0.3036454 -0.055858687 0.018412676 0.32192656 0.11838172 0.10438359 -0.031833857 0.3025131
0.32135835 0.009514535 -0.12238326 0.23798712 0.6254694 0.17967469 0.14427456 0.31544247
0.26824495 -0.4572853 -0.09027712 0.09337036 -0.014155595 0.48433402 0.033988174 0.27594885
-0.1687292 -0.022537353 0.032417223 -0.22365564 0.06222736 0.13894989 0.3927467 -0.052518167

linear_relu_stack.2.weight f4 [256, 128]
00000000: 1ae9 683d e6aa 2c3b 9c8c 263e 77a5 393d
00000010: 43e2 3fbe ec79 32be 8492 2b3e 9eec bc3d
00000020: 3be8 c73d 416a eabc 7c5a 5abd eea1 9c3d
00000030: 9cce 5b3d 1692 dc3d b298 2ebe f467 0f3d
00000040: f71c 84bc 0efb 2abd 09e3 933d 69e9 873d
00000050: 3305 56bd fb6e 3fbd 15db 19be 347a 493e
00000060: a1d0 2bbe 45c7 ddbc ea51 923d 1646 113d
00000070: 0943 fc3d 1606 843c 1cdb ad3d 9edf edbc
00000080: aba2 2d3e 331d 03be 7de4 0c3e 63c2 513d
00000090: d24d 4d3c e81c 843c 6f6e b63d d872 063e
000000a0: 4043 143b d33e 843e bc76 39bc 1dba 9b3d
000000b0: 1680 7f3b 49a9 bb3d 5b2a 1fbe 4b8a e23e
000000c0: 5183 ad3e 8957 1f3d a527 14bd 6743 973c
000000d0: 2282 003f 5d2c ff3d 4f7b 263d 5f7f 8abd
000000e0: 8fbc 10bd b9a2 0b3e 7f68 593c 164f 443d
000000f0: aa3f 943d 1a16 dc3c de84 84be d20e f13d
00000100: 7d74 2dbe 0ec2 72bd b35c 12be d388 133d
00000110: c9ad d33c b2c0 aebc 3ce5 a63e 4091 b0bc
00000120: 9f84 993d 47d8 12bb 77d4 4a3c ec30 4a3e
00000130: 6d5c 97be 6754 393d c146 10be 9a51 873d
00000140: fdbd a53d e3ca f7bd 6140 5a3d 9789 26bd
00000150: ef71 b63c 121c e13d 2781 dc3d 47ac 7ebe
00000160: e96a 2ebe a207 173e edba 82be 22db 53be
00000170: 014c a23d b56f 64bc 87a0 903d adaf 943d
00000180: 0229 5b3e c957 62bd 7971 30bc 387b 3d3d
00000190: 921c 3cbe b9fa 34be 2dd6 8abd d870 883e
000001a0: 3e74 5b3b 34ef 21bd b3f0 e2be b141 083c
000001b0: 6379 22bd 2eb5 b03e 1ff1 933d e4f6 37be
000001c0: 89f0 203e 37a8 383d db60 4bbe 611a 37be
000001d0: 39d4 383e a8e0 3f3e 1a02 33bd 9d69 9fbb
000001e0: d157 c7bc 95ef 05bd b182 123d cb3a 993d
000001f0: e60c 41be a2b6 31be 1e6f 503e 9cbf dd3c
00000200: 34c3 283d 5d22 a93c c8be acbd afec 52bd
00000210: 6c18 cabc 037b 1c3d 519c b33c db09 07be
00000220: 0383 b4bd 4dbb cc3c 23f1 3cbd 75fd 0dbe
00000230: 396d adbd 50b7 ddbd 16d2 ecbc 7e7d 19bd
00000240: c799 133c 8331 f33c 0eda 56bd e57c 8fbd
00000250: 0cfe 82bd f6e5 15bd 0853 5a3d 4db8 963c
00000260: d761 bdbd e36b ccba 7a70 f3bd 7f48 19bd
00000270: 3d66 2c3d 56e0 b8bb 2d49 2abc 80a8 eebd
00000280: 4858 373d 60ef e8bd 18cc 8fbd df93 3a3d
00000290: 613b e5bd 480c 4cbe e217 95bd 695c a1bd
000002a0: b3db a73e 51af 99bd 1cfd 79bc 6732 643d
000002b0: a1e4 3bbd 912d 103c 6065 95bd 3375 c53c
000002c0: 153d 283e fe67 2fbe c4d7 dd3c 1342 a03d
000002d0: 9c4b e9bd 29e1 7ebe b6e3 403c 51e0 07bd
000002e0: b1c0 8d3d 905c 34be e618 f4bd 0f28 bf3c
000002f0: 4480 dfbb 5285 babc e6e5 d7bd 3d2f b83d
00000300: 5b58 363e 79f1 983c e9da 2cbd 0331 e83d
00000310: 8497 073d 34da 8b3e 9c97 283d a926 d4bb
00000320: 327c 843d c45f 0ebe 5b47 dc3c 5847 633d
00000330: 44fe ecbd 6c20 e6bd 2ead 87bd 7975 cb3c
00000340: 38c9 bdbd a605 81be 3064 ef3d 6d66 0bbd
00000350: d09f 14be 0920 b9bd 5766 30be d7e8 8abc
00000360: 2242 5bbe d1ce 5a3c 3d83 05bd d28b 133e
00000370: ecc3 93bd 2ed5 f9bd 4731 2f3d 5bdf ffbd
00000380: 6451 ce3d 0445 093c 2958 6f3d fcb6 343c
00000390: ff6f 61be eb10 7abd e10d 17be 16ca b0bd
000003a0: b31f 6cbd 99e7 a7bc 5ae3 70be 77c7 86bd
000003b0: bd48 933e 3eda 8abd 7fea 74bd a05c 29be
000003c0: d70f ce3c 1a7e 1abe 1548 063e 8462 06be
000003d0: 2562 113e 505b efba a2a2 873d 4617 21be
000003e0: 5c57 6ebe d3c6 1bbd da18 9dbd 158c 0c3c
000003f0: c939 173d ff87 863c 36bb 6cbc 1ce5 debb
0.056862928 0.002634698 0.16264576 0.045323815 -0.18738656 -0.17429322 0.1675511 0.09224819
0.09761091 -0.028615119 -0.05330895 0.07648073 0.053663835 0.10770051 -0.17050436 0.035011247
-0.016127093 -0.04174333 0.07221038 0.06636316 -0.052251052 -0.0467367 -0.1502498 0.19675523
-0.16778804 -0.027072558 0.0714453 0.03546723 0.123174734 0.016116183 0.084890574 -0.029037293
0.16956584 -0.12804107 0.13759036 0.051210772 0.012530761 0.016127065 0.08907782 0.13129747
0.0022623092 0.2582918 -0.011319812 0.07603858 0.0038986257 0.09163148 -0.15543501 0.44246134
0.3388925 0.03890184 -0.03617062 0.018464757 0.50198567 0.124596335 0.04064494 -0.06762575
-0.035336073 0.13636293 0.013269543 0.047926985 0.072387055 0.026866008 -0.2588262 0.11770405
-0.16938968 -0.059267096 -0.14293174 0.036019158 0.025839703 -0.021332119 0.32596767 -0.021553636
0.074959986 -0.0022406743 0.012379757 0.19745225 -0.29562703 0.045246508 -0.1408949 0.06607361
0.08092878 -0.120992444 0.053284053 -0.04065856 0.022271125 0.10991682 0.10766821 -0.24870406
-0.1703297 0.14749005 -0.25533238 -0.20689061 0.07924653 -0.013942649 0.07061868 0.0726007
0.21402362 -0.0552595 -0.0107692415 0.04626009 -0.18370274 -0.17673768 -0.06779132 0.26648593
0.0033486034 -0.039534763 -0.44324264 0.008316443 -0.039666545 0.3451323 0.072237246 -0.17965275
0.15716757 0.045082297 -0.19861166 -0.17881157 0.18049707 0.18738043 -0.043703176 -0.004864885
-0.024333866 -0.032699186 0.03576917 0.07481917 -0.18852577 -0.17354825 0.20354888 0.027068906
0.041201785 0.020646269 -0.08434826 -0.05149525 -0.024669848 0.03820325 0.021925123 -0.13187353
-0.08814051 0.024991656 -0.046128403 -0.13866217 -0.08468098 -0.1082598 -0.02890877 -0.037473194
0.009008831 0.029686695 -0.052454047 -0.070062436 -0.06396112 -0.03659626 0.05330184 0.018398428
-0.09247177 -0.0015596118 -0.118866876 -0.037422653 0.04208969 -0.0056419773 -0.010393423 -0.116532326
0.044761926 -0.11373782 -0.0702135 0.045551177 -0.11192966 -0.1992656 -0.07279946 -0.07878954
0.32784805 -0.07504142 -0.0152581 0.05571213 -0.045872334 0.008799926 -0.07294726 0.024103737
0.16429551 -0.17129514 0.027080424 0.07825103 -0.113913745 -0.2489058 0.0117730405 -0.03317291
0.069215186 -0.17613435 -0.119188115 0.023334531 -0.0068207104 -0.02276865 -0.105418965 0.08993385
0.17807142 0.01866983 -0.042200956 0.11337473 0.03310348 0.27314913 0.04116021 -0.006474335
0.06469001 -0.13903719 0.026889494 0.05548796 -0.11571935 -0.11236653 -0.06624828 0.024836289
-0.09266895 -0.25199622 0.11689031 -0.034033228 -0.14514089 -0.09039313 -0.1722654 -0.01695673
-0.21411946 0.013354973 -0.03259586 0.14408806 -0.072151035 -0.12198864 0.042771604 -0.124937735
0.10074118 0.008378271 0.058433685 0.011029955 -0.2201538 -0.06105129 -0.14751388 -0.08632295
-0.05764742 -0.020496177 -0.23524228 -0.06581014 0.28766432 -0.06779908 -0.059793945 -0.1653924
0.025154037 -0.15087166 0.13113435 -0.13123518 0.14197595 -0.0018261466 0.066228166 -0.15731534
-0.23275512 -0.03803141 -0.07670756 0.00857832 0.036920343 0.01642227 -0.014448931 -0.0068022143

linear_relu_stack.2.bias f4 [256]
00000000: 7552 a83e bde5 673d a200 be3d dca4 993e
00000010: 8527 0a3e a9e2 26bc 5031 423d 38dd 333e
00000020: f10a 7bbd 40a1 24bd b859 0e3e b9a2 39bd
00000030: cc9e b13e 9d24 d73b 960e 213e db7d e0bc
00000040: ebad 9fbd f2f7 763e daaf 1b3c eb0d 0f3e
00000050: 3dc0 1d3e 84fe f23c d2c2 1a3e 6296 133e
00000060: c11e ca3b 3e3a 6c3e 1fce af3d 34ec 15bd
00000070: abe2 69bd a9b7 3cbc 3629 843d fd8e 0abe
00000080: 1c55 683e 2082 9d3c 2177 bc3e ce29 aebd
00000090: c26d 5a3e 1286 9c3c 2fe3 e6bd 7a6f 273e
000000a0: f6b7 163e 803c 353e 7f16 3d3e c201 573e
000000b0: 916f 48bd c1f8 f43d 283a 193e d480 843e
000000c0: 66ac 69bd ec88 843d 4324 b4bd 2ddf 2d3e
000000d0: 971f 3d3d 1d72 43bd f624 ee3e 58e1 133e
000000e0: 56c4 093b 33a6 90bd d2e9 633e 2e14 063e
000000f0: bb76 af3e 698e 1f3e ca91 803e ed0c 473d
00000100: 4798 1c3d 613f 8ebc 7c59 423a 1138 873e
00000110: 6208 a13e d1e1 2c3e a0a2 10be c784 853e
00000120: ab47 8f3e 0d77 103e 0817 6c3e 0595 7f3e
00000130: 5448 983d 6574 9a3e 1c1f 32bc 47d0 713e
00000140: 8a07 ddbd d571 83bd 6562 093d 4ccd 4b3e
00000150: ab6a fc3d 12a9 dd3e 2dfd ccbc 31b2 203e
00000160: 09d8 93bd 7b0c 873d 4b86 fc3d f1cf b6bc
00000170: bb8f e5bc 39c2 1e3e c2c7 ab3e 7dd4 2bbb
00000180: 7f50 1e3e 270f 113e fc7d f3bd 7f85 2d3e
00000190: f725 223e 2d6f 413d aba3 b5bd 63d4 e0bd
000001a0: 066c 213e 74ff 82bd 9162 523e 2c34 363e
000001b0: dbc4 20bd 1c95 0d3e ea29 fd3d c839 14bd
000001c0: 58c9 6f3b 8836 e7bd 0288 9ebc 50fc 9c3e
000001d0: 9d6b 1c3f 8a00 c7bd 2ce3 1bbc ba43 d53e
000001e0: b55a 863d d626 7cbd f23e 2c3b 4dd7 473b
000001f0: ce0d 8c3b e2b1 e6bc 1bf2 9ebd 50f6 3dbe
00000200: 67e5 0f3e b4a4 ee3c 10e1 0a3e fd41 993b
00000210: 9715 103e 33e2 a53d 9d62 8d3e 9340 99bd
00000220: 27b9 153e ceb0 b93d 07b2 48bc 4aa4 083e
00000230: 0773 5f3e e336 5c3e 04a9 d33c 0afa 573c
00000240: 5f70 89bd 831a 9d3e 2a71 363e 8c0e aabd
00000250: fd44 673d 40b9 813e 9a1e 963d aaa8 c33d
00000260: 2b8e 5abe 86a1 853e d372 283e aba7 2a3e
00000270: b89b 863d fcf0 a23d 5c54 cdbd 05e0 55bc
00000280: 2551 3a3e 79a1 3bbe 49be 873e d3c1 873e
00000290: f7b0 4e3e 3363 b93d 7e95 89bd 4f35 2f3d
000002a0: 62a8 1b3e c7d5 2ebe 442b 29bd f65d bebd
000002b0: 984f 4f3e ff43 373e 79b5 a03e 0df3 4f3e
000002c0: 5982 1cbe a2eb c33d f2c2 673d 0d01 093c
000002d0: 6bfc 543e 9e31 043e 90e9 22be 9ae7 db3d
000002e0: 1829 383e 8227 203e 9e95 433e 1efe c33d
000002f0: fa12 ce3d 8786 1dbe 47c3 bebc ceda 75bd
00000300: 397c 933e 29f3 a5bd b081 ba3e c57d 953b
00000310: 55c8 8d3e 4344 14bd 85de b8bc cff8 433d
00000320: 0391 c43e 62ea 9c3e eef9 22be fee1 92bd
00000330: ade6 403e 70fd 3d3e 934d 9b3d 5813 24be
00000340: 7ac6 9c3e 6c05 23be 8bad 96bc 4b9b f8bd
00000350: a41e 2d3e d1be bf3d 3a6a 033e d968 133e
00000360: 16ff ca3d e02b dc3d 3890 e739 bc82 5c3b
00000370: b0bf c43e 0dbf fa3d a9df 013e d54a 0b3d
00000380: 8d4c 513e 01cc 5a3e 7181 8cbd 5c63 d73b
00000390: a5c3 bf3d 1161 bf3c 8ebf 753d b423 653e
000003a0: 3ffc 5d3e fd7b a63e 9ffa 2bbd 9875 5e3e
000003b0: 97d6 68bd 66ea 083e e6ea 1f3e bc55 fc3e
000003c0: ff50 f73d 055b 753d a0ac fe3d 8eeb 0b3d
000003d0: ee56 d93e 9787 4abe 53e8 02be fd20 4c3e
000003e0: f0e6 e63d 20e3 2d3d 9915 d13e f549 f5bc
000003f0: ffc4 093f 3ae5 8abe c673 be3e 4a0e 0c3e
0.3287541 0.05661558 0.092774644 0.3000859 0.13491638 -0.010185876 0.04741031 0.17564857
-0.06128973 -0.040192842 0.13901412 -0.0453212 0.34691465 0.006565644 0.1572822 -0.027403763
-0.07796844 0.24118021 0.0095023755 0.13970153 0.15405364 0.029662378 0.1511338 0.14412835
0.006168217 0.23069093 0.08584236 -0.036602214 -0.057100933 -0.011518397 0.06453173 -0.13531108
0.22688717 0.019227087 0.36809638 -0.08504067 0.21330932 0.019106898 -0.112738006 0.16351119
0.14718613 0.1769886 0.18465613 0.20996764 -0.048934523 0.119615085 0.14963591 0.25879538
-0.057049178 0.06471428 -0.08795979 0.16979666 0.046172705 -0.04771625 0.46512574 0.1444143
0.0021021566 -0.0706295 0.22257164 0.13093635 0.34270272 0.15581669 0.25111228 0.04859631
0.03823116 -0.017364206 0.0007413847 0.26409963 0.31451708 0.16883017 -0.14124537 0.26077864
0.27984366 0.14107914 0.2305566 0.2495919 0.074356705 0.30166927 -0.010871675 0.23614608
-0.107924536 -0.06418196 0.033541102 0.19902533 0.12325033 0.43293053 -0.025023067 0.15692975
-0.0721894 0.06594177 0.12330302 -0.022315951 -0.028022638 0.15503778 0.3355084 -0.0026219182
0.15460394 0.14165936 -0.11889264 0.16945456 0.15834795 0.047225166 -0.08869108 -0.109780096
0.15763864 -0.0639638 0.20545413 0.1779334 -0.039250236 0.13826412 0.1236151 -0.036187917
0.0036588516 -0.11289698 -0.019351963 0.3066125 0.61101705 -0.097169 -0.009514611 0.41653234
0.0656027 -0.061560474 0.0026282636 0.003049332 0.0042741066 -0.028160993 -0.07761022 -0.18550992
0.14052354 0.029131271 0.13562417 0.004677056 0.14070736 0.08099785 0.27614298 -0.0748302
0.14621411 0.09066926 -0.012249476 0.13343921 0.21821223 0.21505313 0.025837429 0.013182173
-0.06710886 0.3068429 0.17816606 -0.08303556 0.056462277 0.25336647 0.073300555 0.095536545
-0.21343295 0.26099795 0.16450052 0.16665523 0.0657267 0.0795612 -0.10025856 -0.013053899
0.18195017 -0.18323316 0.26512364 0.26515064 0.20184694 0.09052124 -0.067179665 0.04277545
0.15200952 -0.17073737 -0.041301027 -0.092952654 0.20245206 0.17897032 0.31388453 0.2030756
-0.15284099 0.09566428 0.0565824 0.008362067 0.20799415 0.12909552 -0.1590941 0.10737534
0.17984426 0.15640071 0.19100043 0.095699534 0.10062213 -0.1538335 -0.023286475 -0.06002312
0.28805712 -0.0810302 0.3642707 0.004562112 0.27691904 -0.036197912 -0.022567043 0.047844704
0.38391885 0.3064757 -0.15915653 -0.07172011 0.18837996 0.1855371 0.075831555 -0.16023004
0.30620176 -0.15920037 -0.018393299 -0.12138995 0.1690622 0.09362567 0.12833491 0.14395465
0.09911935 0.10750556 0.00044167205 0.003364726 0.38427496 0.12243471 0.12682976 0.034006912
0.20439358 0.21366884 -0.068606265 0.006573124 0.09363488 0.023361715 0.059997134 0.22376901
0.21678255 0.3251647 -0.041987058 0.21724546 -0.056845274 0.13370666 0.1561695 0.4928416
0.12075996 0.059901256 0.12435269 0.03416019 0.42449135 -0.19778286 -0.12783937 0.19934459
0.112745166 0.04245293 0.4083679 -0.029942492 0.5381622 -0.2712801 0.37197703 0.13677326

linear_relu_stack.4.weight f4 [10, 256]
00000000: dbca 813d 512a 33be adab 33be 41c0 ea3d
00000010: a2a8 873d 19e8 e33b 6b54 993d e4af 193d
00000020: 5051 1e3d 28de 11bd 4101 25be 06e3 213e
00000030: 4893 213d 7cd6 1f3d 5e2e 8dbd cc5e cd3d
00000040: 555c 4f3d 1baa a3be 4317 fd3d 85eb af3d
00000050: 29d6 d0bc bf64 b93d 15bf fcbd fbb6 733d
00000060: ebcd 103b e828 50be 1d49 ef3d 5516 76bd
00000070: bc68 07bd 66bd c4be efdc b1bd cb8c 25bd
00000080: 1b1f 063d ba23 fe3c 7524 97be 8897 df3c
00000090: 4590 9fbc 8d9d e8bb c86b 31be ecee 21be
000000a0: 61c8 9f3c d2f2 15be 6a48 3c3e 026f 5c3d
000000b0: 03b4 6fbe 50c6 d7be b059 523d 23f8 303c
000000c0: 9c61 e43b e989 613c cb02 01bd 55d3 88be
000000d0: 0e61 443d 8536 99be 3446 193c a81a d0bd
000000e0: f459 26bb 2b4b db3c 0b01 b93d 96c1 39bf
000000f0: a81c 0e3e d749 9bbd 5c04 f7bd 554a 2b3d
00000100: cc03 81bd d166 b2bd 0145 433e 3060 803d
00000110: f540 f73c 6faf c53d 679b 7b3d 48f3 03bd
00000120: 320b 26bd bb1d 87bb 992a 55be eb0e 973d
00000130: d452 35bd 670f 273d 4301 22be 25eb 4a3d
00000140: 6962 ab3d f17d bcbd 44fe 413d f636 c8bd
00000150: 6391 e0bd e090 3fbe 1ec3 f53c d4e4 503d
00000160: c9eb 0e3e 2d12 a9be 05e3 aebe f216 303e
00000170: 26a9 0d3b 1f5b d0bd 8ad7 3b3d cd71 b3bd
00000180: aeb9 a8bd caf2 7d3d c982 62be 2336 623d
00000190: 8f4f 2f3d 7490 1c3d 05ba 1b3d 863b 013d
000001a0: e137 423d 1e1b d93c 38b1 be3d ada0 70bd
000001b0: e0b4 c73b 774c cf3d 1efc a63d c212 79be
000001c0: 5197 a6be e463 19bd 87d5 86be 689f d8bd
000001d0: 5db0 a23e 4c90 673d f42f ec3b f3ce abbd
000001e0: 6a4c 8d3c 5a9c 3a3d d36d 743d 64f6 52be
000001f0: a77c bc3b 34ff 22be 4b9e 533d 2c9a 233e
00000200: 8066 83bd 009f 43bd ca8f 9ebe 2316 143c
00000210: f8db 89be 719e 1e3d d5ce 4ebe 0177 14bd
00000220: 32d5 743d 01ce bebd ca80 6f3d 32e3 8a3d
00000230: d167 ec3d 2719 023b 27b1 bc3c 5a99 dcbd
00000240: ebd7 ab3b bb7a 93be 00cf 2dbe d700 113d
00000250: ff9b 983d a1a9 2c3d cc7b d03c dd6c 75be
00000260: aec7 223e 7737 7ebe 4bc1 063d 2301 78bd
00000270: 22e5 893c 3b22 013d be6d 9b3d 2062 aabc
00000280: 11c5 6ebe dd96 293d 6a45 983d 4393 fd3c
00000290: 25be 0c3d 4882 0e3d f631 a3bc 751b 3abc
000002a0: 9b59 06bf daff ea3c 47eb 943d 017e 48be
000002b0: 2bb1 9ebd 32c2 f7bd a795 c2bd 4215 c13d
000002c0: 75e4 8e3d 1923 f9bd 6b8c a33d 9735 8d3d
000002d0: 9f85 d4bc 2916 003e 4d6b 653d 962c d2bb
000002e0: ae16 d13d ff43 a8be d666 803d 5d80 a7bc
000002f0: 97b2 0b3e 0d31 8e3d ac91 633d 692d 2bbe
00000300: 8bf2 33be 0ff0 29bd 28ad 5abe 13c1 37be
00000310: e7a2 c5bd 5eae 90be 726e 4b3c 2b49 e73c
00000320: ea4f 44bc 3f0f 693e 782d eebb aaa8 b23d
00000330: 98f2 b53d 7aba a33d 112b 83bd 6d04 c0bc
00000340: 4a46 76be 5dab b4be 71ab 89bd 72f2 bbbd
00000350: b191 7dbd 6843 e2bd 9857 37be 851a a23e
00000360: a46e 133c a0bd 2e3d 6097 78be f3df 68be
00000370: 1809 13be c043 c23d bedc 793d 70d2 8b3c
00000380: a691 94bd 3887 84bd eafc a23c 053f 3b3c
00000390: df48 7fbe 5072 3abe 138c 503e 32c2 74be
000003a0: 819c ef3d 285f 733c 15ef a43c 013b 87be
000003b0: 609b a53d da58 5b3d c6e7 f43d f913 abbe
000003c0: b1b8 863d 3bce 003e 0eaa 43be 07a8 da3c
000003d0: f1a5 dcbd d78f cdbd 26d7 9dbd 3bcf 15be
000003e0: a470 b5be aee5 e93c 07df f1bd a1f7 1b3d
000003f0: a1d5 11be fa16 64bd b2da 933d 659a 91be
0.0633752 -0.17496611 -0.17545958 0.11462451 0.06623961 0.0069551584 0.074868046 0.037521258
0.038651764 -0.035612255 -0.1611376 0.15809259 0.0394471 0.039022908 -0.068936095 0.10027847
0.050625164 -0.31965718 0.123579524 0.08589844 -0.025492745 0.09052419 -0.123411335 0.059500676
0.0022095393 -0.20328104 0.11683867 -0.06007989 -0.033058867 -0.3842575 -0.08684718 -0.040417474
0.03274451 0.031022895 -0.29520002 0.027293935 -0.019477973 -0.0070988596 -0.17326272 -0.15813798
0.019504728 -0.1464341 0.18386999 0.053816803 -0.23408513 -0.42143488 0.051355064 0.010801348
0.0069696438 0.0137657905 -0.031496804 -0.26723734 0.04794412 -0.29924408 0.009355117 -0.10161334
-0.0025383206 0.026769241 0.09033402 -0.72561014 0.13878119 -0.07582443 -0.12061378 0.041818935
-0.06299552 -0.08711017 0.19069292 0.06268346 0.030182341 0.09652602 0.0614275 -0.032214433
-0.04053802 -0.004123417 -0.20817031 0.07375892 -0.044268444 0.040786173 -0.15820794 0.049540658
0.083683796 -0.09203709 0.047361627 -0.09776108 -0.1096523 -0.18707609 0.030000266 0.050999478
0.13957132 -0.3302168 -0.34157577 0.17196253 0.0021615713 -0.1017363 0.04585985 -0.0876194
-0.082385406 0.06199912 -0.22120203 0.05522741 0.042800482 0.0382237 0.0380192 0.031550907
0.04741657 0.026502188 0.093111455 -0.058746982 0.00609456 0.101220064 0.08153556 -0.24323562
-0.3253732 -0.03744878 -0.26334783 -0.10577279 0.3177518 0.056534097 0.007207865 -0.08389082
0.017248351 0.045559265 0.05967505 -0.20601803 0.0057521644 -0.15917665 0.05166463 0.1597678
-0.06416035 -0.047759056 -0.30969077 0.009038481 -0.26925635 0.03872532 -0.20196088 -0.036246303
0.05977363 -0.09316636 0.058472432 0.06781615 0.11543239 0.0019851418 0.023033692 -0.10771437
0.0052442453 -0.28804573 -0.16973495 0.03540119 0.07451629 0.04215396 0.025449656 -0.2396731
0.15896484 -0.24825846 0.032899182 -0.06054796 0.016832892 0.031526785 0.07589291 -0.020798743
-0.23317362 0.04140364 0.07435115 0.030954009 0.034361023 0.034792215 -0.019921284 -0.011359085
-0.5248048 0.028686453 0.07271438 -0.19579317 -0.07748636 -0.12097587 -0.095012 0.09427883
0.069771685 -0.121648975 0.07985767 0.06894987 -0.025942622 0.12508453 0.056010533 -0.0064140065
0.10209404 -0.32864377 0.062696144 -0.02044695 0.13642345 0.069429494 0.055558845 -0.16716541
-0.17572992 -0.041488703 -0.21355116 -0.17944746 -0.09650212 -0.28258032 0.012416469 0.028233131
-0.011981944 0.22759722 -0.007268604 0.08723576 0.08884162 0.07994552 -0.06404699 -0.02343961
-0.2405025 -0.3528699 -0.06722153 -0.09177102 -0.06190652 -0.11048013 -0.17904508 0.31660858
0.008998547 0.04266131 -0.24276495 -0.2274168 -0.14358938 0.094855785 0.06100153 0.017068118
-0.07254343 -0.064711034 0.01989599 0.011428599 -0.24930142 -0.1820767 0.20365934 -0.23902205
0.116997726 0.01485423 0.020133534 -0.26412204 0.08086276 0.053551532 0.1195827 -0.33413675
0.06578196 0.1257867 -0.1910784 0.02669145 -0.10773838 -0.10037201 -0.07707052 -0.14629833
-0.354375 0.028551903 -0.11810117 0.038077954 -0.14241649 -0.055685975 0.07219447 -0.28438106

linear_relu_stack.4.bias f4 [10]
00000000: 1957 9dbd cfb0 35be 2e0b c43d d769 153e
00000010: 54f6 05be 1c1b d33d feb4 3b3d 547b a93d
00000020: 0628 2ebd 93b4 8ebe
-0.07682628 -0.17743228 0.09572445 0.14591156 -0.13082248 0.10307905 0.045826904 0.08275476
-0.042518638 -0.27872142
