models/NN-small.pth (torch, 241495 bytes, 6 tensors)

linear_relu_stack.0.weight f4 [64, 784]
000000 06 3b 87 be 30 0b a8 be bf 10 99 be 21 ae 84 be
       -0.2641222 -0.32821035 -0.2989559 -0.259141
000010 68 12 9d be 23 69 84 bd be e9 63 3e 00 b4 0f 3f
       -0.30678105 -0.06465366 0.22257134 0.56134033
000020 b4 f7 80 3e b6 55 8e be 16 d7 93 bd 60 8a c4 bc
       0.25188982 -0.27799767 -0.07218759 -0.023991764
000030 98 4e 07 bd dc ef 73 3e 6b c9 5d 3e c3 85 14 3e
       -0.033033937 0.23821968 0.21658866 0.14504151
000040 96 7a d6 3c 5f d1 07 be bf 58 e5 bd 5c 3b 58 3d
       0.0261815 -0.13263462 -0.111985676 0.052790985
000050 6b 77 5a 3e 76 2c dd 3d eb d3 36 be ea cb 23 be
       0.21334617 0.10799496 -0.17854278 -0.15995756
000060 15 a5 49 be 69 8f 28 be 37 1e 2d 3c 4d 30 41 be
       -0.1969188 -0.16460957 0.010566286 -0.18866082
000070 c5 34 a9 be cf e4 3b be 52 e2 5f be aa 5d 78 be
       -0.33048072 -0.18349002 -0.21863678 -0.2425448
000080 22 95 7f be a8 d6 38 3e 7a 54 76 3e 5f 71 0f bd
       -0.24959233 0.18050635 0.24055663 -0.03502023
000090 5f a6 86 be bf 38 f7 bd 4d 66 af 3d 1e db 15 3e
       -0.26298806 -0.1207137 0.08564434 0.14634368
0000a0 c9 a5 b9 3d b4 54 9f 3d d9 c8 32 3e 8e 0b c3 3d
       0.09064824 0.07779828 0.1745943 0.09523688
0000b0 c8 fa 84 3d 7b 69 a5 3d b2 f7 3c 3c 47 91 5d be
       0.06493145 0.080767594 0.011533665 -0.2163745
0000c0 b3 af 76 be 29 b2 11 bd a9 77 23 3b ae f4 72 3b
       -0.24090461 -0.035570297 0.002494315 0.003707211
0000d0 a4 3d 5e bc 4b 9d d0 3d ea ab 58 3e e3 d7 1e be
       -0.013564501 0.10186251 0.2115933 -0.15512042
0000e0 19 60 62 3e be 97 20 bd dd d2 fa bd 17 fa ad bd
       0.22106971 -0.039207213 -0.1224725 -0.084949665
0000f0 5f 26 4b 3d d8 56 e0 3d d3 84 8a be 41 dc db be
       0.04959714 0.10954064 -0.27054462 -0.42941478
000100 95 d3 b0 be 06 1d 60 be 8d 52 81 bd 49 e7 09 3d
       -0.34536424 -0.21886072 -0.063145734 0.033667836
000110 c3 70 2f 3e 83 39 6c 3e a8 aa 78 3e 7c 8e 6f 3e
       0.17132859 0.23068814 0.2428385 0.23394197
000120 50 fb 9e bd 59 e4 10 bd c3 31 0e 3c eb 27 26 be
       -0.07762778 -0.03537402 0.008678856 -0.16226165
000130 51 be b6 be 28 e4 b7 be 56 29 3a be 2b 86 4a bd
       -0.35692075 -0.35916257 -0.18179831 -0.04944436
000140 ce 83 68 be bc ae 2b 3d a4 fb 8b 3e 5c de d7 3d
       -0.2270653 0.041914687 0.27340424 0.105404586
000150 fa 7b 23 3e 18 22 9d 3d 64 69 07 3e 55 0d ba 3d
       0.15965262 0.076725185 0.13223797 0.09084574
000160 ed 79 85 bd 93 00 fa bd 7d 88 a7 bd 87 45 de bc
       -0.06517396 -0.12207141 -0.0818033 -0.027132763
000170 b0 77 79 be a2 a2 2c bd 87 05 62 3a a6 eb 96 3d
       -0.24362063 -0.042147286 0.00086220395 0.07369165
000180 6a fb 93 3d 37 1e 84 3e c6 f7 90 3e 9a a6 5f 3e
       0.07225688 0.25804302 0.28314036 0.21840897
000190 13 31 4a 3d b1 58 92 3d af 00 3a 3c 48 6c 23 3c
       0.049363207 0.07145823 0.011352702 0.009974547
0001a0 ca fa bb bc d1 d9 b0 bc e0 56 08 be 4b 40 80 bd
       -0.022946734 -0.021588238 -0.1331439 -0.06262263
0001b0 28 af ed bc 6c 4d c9 bb f1 54 70 3e 5f 5f b4 3e
       -0.029014185 -0.0061432626 0.23469903 0.35229012
0001c0 49 e2 38 3d 45 75 ff 3c fb e7 d0 3d 52 46 09 be
       0.045137677 0.031183848 0.10200497 -0.13405731
0001d0 6b 96 68 be 8e 32 63 3d eb 22 aa 3c f3 3d f6 bd
       -0.2271363 0.055468135 0.020768603 -0.120235346
0001e0 cd f5 32 be b1 bd 24 bd e7 59 6f 3c ba ed 7f 3d
       -0.17476578 -0.040219966 0.014608837 0.062482573
0001f0 ca df 3c 3c 2b 7a eb 3d b0 ef 2a 3e 04 99 26 3d
       0.011527965 0.11497911 0.16692996 0.04067327
000200 60 7e bc 3d 6f f3 4d 3c 4c f2 c3 3d d8 ed 10 3d
       0.092037916 0.012570246 0.09567699 0.035383075
000210 06 70 b4 bd a6 a9 5b 3d 8c 50 be 3d 2c 0b d9 bd
       -0.08810429 0.053628586 0.09292707 -0.10597834
000220 bf e7 c5 bd 18 39 67 bd 17 ed a7 3c 4e 91 5a 3e
       -0.09663343 -0.056450933 0.020498795 0.21344492
000230 50 42 88 3e 38 4d 9c 3d de 66 92 3d 04 35 7f be
       0.26613092 0.07631916 0.071485266 -0.24922568
000240 45 e9 1a be 31 83 c9 bd fa d8 49 bd 46 db a9 bd
       -0.15128048 -0.09839476 -0.04927919 -0.08293776
000250 18 27 64 be 97 92 85 bd 17 be e4 bc 81 dc d4 3c
       -0.22280538 -0.065221004 -0.027922673 0.02598405
000260 30 39 fc 3c 67 89 e6 3d 9e 86 ca 3d db 84 d2 bc
       0.030788988 0.11256676 0.098889574 -0.025698116
000270 e1 d3 6d 3d c9 97 5e 3d 33 b3 3b 3d 98 92 24 bd
       0.05806339 0.054343972 0.045825195 -0.040178865
000280 e5 25 15 be ab b9 41 bd 6e 14 1d bd 78 47 13 be
       -0.14565237 -0.047296207 -0.03834956 -0.14382732
000290 d2 f3 fb bd 3c 3b 94 3d b2 0e 69 3e 72 db a0 3e
       -0.123023644 0.072378606 0.22759512 0.31417423
0002a0 3d 9c 1f 3d f3 5d 32 3e 45 26 8c 3d c6 03 88 3d
       0.03896736 0.17418651 0.06843237 0.06641345
0002b0 65 63 d4 3c 66 c6 32 bd 1a 20 17 bc 42 4b ed bc
       0.025926301 -0.04364624 -0.009223962 -0.02896655
0002c0 99 9f 00 be 9c a0 97 bc 31 7d a4 3d 43 8c 78 3c
       -0.12560882 -0.018509202 0.08031691 0.01517016
0002d0 ce d8 67 bd 2f 09 c2 3c cd a4 8d 3d dc 94 ac bc
       -0.056603245 0.02368602 0.06916199 -0.021067075
0002e0 03 42 1e 3c e5 7b 02 3e fb ca 13 3e fc 2a c3 3d
       0.009659293 0.12742575 0.144329 0.09529683
0002f0 f4 78 db bc af 53 0b bd fb 3c 70 3d 75 85 d9 3b
       -0.026791073 -0.034015354 0.058651906 0.006638224
000300 d6 50 ee bb 9c ac 19 3d 7e 42 d9 3d ee b2 7f 3e
       -0.00727282 0.03751813 0.106083855 0.249706
000310 50 ab d8 3d 1f a9 b4 3d 60 a1 a5 3d b7 aa 17 3d
       0.1057955 0.0882132 0.080874205 0.03702804
000320 1a 12 2b 3d d5 49 8d 3c a1 39 10 bc be 03 37 be
       0.04176531 0.01724712 -0.008802802 -0.17872521
000330 19 e4 1f be fc 45 9f 3d 41 11 a1 3c 24 96 94 3d
       -0.15614356 0.0777702 0.019661548 0.072551996
000340 a8 1c 09 bd ef 62 05 3e 51 36 35 3e 1a 1d c7 3c
       -0.033474594 0.13026021 0.17696501 0.024305869
000350 df 28 8f bc fa f0 ae 3d c9 58 31 3e ea d6 97 3d
       -0.017475544 0.085420564 0.17319025 0.074140385
000360 c6 f0 1d be ee 8a 30 be b4 55 31 bd b8 04 2a bb
       -0.15423879 -0.17240497 -0.043294623 -0.0025942754
000370 c0 3b e8 3a 13 49 78 3c 67 4b 85 3c c7 08 bd 3c
       0.0017718002 0.015154141 0.016271306 0.023075474
000380 36 2f ce 3e d5 34 49 3e bb 75 19 3c 31 04 42 3c
       0.40270394 0.1964906 0.009366448 0.01184182
000390 fd 67 84 3d 9c 00 c6 3d c2 6c 04 bd a9 2c 49 be
       0.06465147 0.09668085 -0.032330282 -0.19645943
0003a0 2c 80 8d bd be 96 24 3d 53 fa ec 3c a6 e1 74 bd
       -0.069092125 0.04018282 0.028927958 -0.059785508
0003b0 5e 9a b1 bc cd 19 4e 3d 26 10 f3 3d 74 38 05 bd
       -0.021680053 0.050317574 0.118683144 -0.03252454
0003c0 e9 7d db bc 50 1c 93 3c f8 26 21 3e 8f 79 85 bc
       -0.026793437 0.017957836 0.15737522 -0.016293315
0003d0 46 13 1a be 9b 81 43 be 3a 90 f3 bb 10 01 42 bd
       -0.15046415 -0.1909241 -0.0074329646 -0.047364295
0003e0 c5 da 87 3c 26 60 31 3b ea 40 eb bc 11 58 45 3e
       0.01658381 0.0027065366 -0.028717477 0.19271876
0003f0 fd ca f0 3e 9a 4d ce 3d 0a 8b f4 3d e1 30 14 3e
       0.47029868 0.10073395 0.11940582 0.14471771

linear_relu_stack.0.bias f4 [64]
000000 cb 62 eb 3e 84 00 78 3e 6b 71 47 be 5a 2d 6f 3e
       0.4597381 0.24218947 -0.1947686 0.23357144
000010 8f a3 27 3e f2 e2 38 bc df be 1d 3e 92 04 a2 3e
       0.16370986 -0.011284577 0.15404843 0.31644112
000020 58 3f 50 bd 15 ce 8e 3e 9f f2 77 3e d6 0c 33 bc
       -0.05084166 0.27891603 0.24213646 -0.010928353
000030 4d 75 14 be 23 e0 d1 3e 3a af f3 3c 03 36 13 3e
       -0.14497872 0.40991315 0.02974664 0.14376073
000040 b1 ee bd bc ae 82 23 3e b6 13 b7 be 5a c3 b4 3e
       -0.023185106 0.15967819 -0.35757226 0.3530529
000050 0f a2 86 be 22 a5 a2 3e e7 13 7d be 75 95 b7 3d
       -0.26295516 0.3176661 -0.24714623 0.089640535
000060 f0 f6 55 3d f8 42 c3 bd c4 02 3d be 98 ff 62 3e
       0.05223745 -0.09534258 -0.18458086 0.22167814
000070 65 5e 72 3e 69 88 e7 bc 53 c2 9b 3b a7 02 77 3e
       0.23668821 -0.028263288 0.00475339 0.24122106
000080 5a 66 4f 3d 46 6a c3 3e ac c2 21 3e 86 df 0a be
       0.05063472 0.38167018 0.15796918 -0.1356183
000090 40 55 00 3f 94 04 1e 3e 0b 90 bc 3e 12 3c db 3d
       0.5013008 0.15431434 0.36828646 0.10704817
0000a0 80 b3 71 3e 8e 69 6a bc 7e f5 b8 3e bf 9d c3 3e
       0.2360363 -0.014307393 0.36124796 0.38206288
0000b0 5f 9f c5 bd 90 f7 05 3f c0 4e 4d 3e 01 fc b9 be
       -0.09649538 0.52330875 0.20049572 -0.36325076
0000c0 ba 75 f5 3e ec 1c 9d bc 8a e5 93 3d b3 37 24 3e
       0.4794138 -0.01917883 0.072215155 0.16036873
0000d0 35 90 16 3e 26 f1 31 be f4 3d 91 3e bf 69 4a be
       0.14703448 -0.17377147 0.2836758 -0.19766901
0000e0 05 72 27 bd 97 03 17 3f 45 ed aa be 02 e9 f5 bd
       -0.040880222 0.5898985 -0.33384147 -0.12007333
0000f0 ea d7 31 3b 6e ee a2 bc 94 04 fd 3e 59 a2 00 bf
       0.0027136751 -0.019889083 0.49417555 -0.5024772

linear_relu_stack.2.weight f4 [128, 64]
000000 a4 14 1f be 07 3f cc bc 69 bb bd bc 33 ad eb 3d
       -0.15535218 -0.024932398 -0.023160653 0.115076445
000010 f7 b6 0c bd 63 22 47 bd 96 b4 4a 3b 39 e3 23 3e
       -0.034354176 -0.048616778 0.0030930392 0.16004647
000020 a2 c7 bd 3d 46 20 8e 3d 14 dd 65 3c 32 74 ab 3e
       0.092665926 0.069397494 0.01402976 0.33487087
000030 ae e4 40 be 9b c1 be be 58 6b dd 3c 7e 00 3d 3e
       -0.18837234 -0.37257084 0.027028725 0.18457219
000040 00 23 d1 3d 11 fa 1a 3d 6e ad 93 3d 65 f8 8c 3d
       0.10211754 0.03783614 0.072108135 0.06883315
000050 00 4d 96 bd 57 95 78 bd ff 42 ee 3d eb c6 80 be
       -0.07338905 -0.060689297 0.11633872 -0.25151762
000060 b9 2c 06 bd b6 5f 5c 3e cb 16 d8 3b 1c 76 b5 3e
       -0.032757495 0.21520886 0.006594514 0.35441673
000070 fd 19 13 3e f1 57 3f 3d ba 91 50 bb 52 30 de 3d
       0.14365382 0.046714727 -0.003182514 0.1084906
000080 ef 0e b7 bd 4c b5 26 be 5d 10 f7 bd 93 48 a3 3d
       -0.08938395 -0.16280097 -0.12063668 0.07972827
000090 e3 d5 87 bd 9a 7d ac 3e d4 bd 17 be 41 8d d6 3b
       -0.066325925 0.33689576 -0.14818507 0.0065476005
0000a0 b8 a5 51 3d 47 18 0a 3e 0e e3 b6 3c d8 97 92 be
       0.051183432 0.13485824 0.022325065 -0.28631473
0000b0 cb a9 6d 3e b3 15 8e bd 5e 00 ad bc 07 34 1c be
       0.23209302 -0.069377325 -0.02111834 -0.15254222
0000c0 27 f6 4c be 0f 53 75 bd 5f 13 70 3c f0 7f fc bd
       -0.20015775 -0.059893664 0.014653056 -0.1232909
0000d0 33 d8 b2 3d b6 0e 10 be 4b a1 06 be d9 40 a3 bd
       0.08732643 -0.14068112 -0.13147466 -0.07971353
0000e0 c4 9c 94 3c 03 3a 9c bd ed 2e ee bd 05 fc 46 3e
       0.018141158 -0.07628252 -0.11630044 0.19432075
0000f0 a7 00 93 3d 0a 7e 28 bd 50 21 bb 3b 9d b1 bc bd
       0.07177859 -0.041135825 0.0057107583 -0.092135645
000100 3e c0 5e 3e 04 e5 f9 bc 4e ba e8 3c 35 12 03 3e
       0.21753022 -0.030504711 0.02840915 0.12799914
000110 cb 1e 7d 3d e4 57 9b 3d 32 94 ca 3d 7a eb 9f 3e
       0.061796945 0.07585123 0.09891547 0.31234342
000120 59 95 71 be b5 08 ee 3c 88 1c 51 bd 65 f7 0b be
       -0.23592128 0.029056886 -0.0510526 -0.13668592
000130 e2 48 57 bd 47 a5 2c 3e 90 f6 3b 3e c4 c9 ea 3c
       -0.05255974 0.16859923 0.18355775 0.028660662
000140 9a 3f e9 bb e7 d1 d7 be 1d 7e 73 bd cb 06 8c bd
       -0.0071181776 -0.4215233 -0.059446443 -0.06837233
000150 35 99 43 be d5 0b 44 be 47 0f 20 be 2e 8a b7 bc
       -0.19101413 -0.19145139 -0.15630828 -0.022404756
000160 8d 35 76 3d d9 6a a1 3d 21 a2 a8 bd 39 d0 9a bc
       0.060109664 0.07881708 -0.08234049 -0.018898116
000170 8e 68 43 3d 47 3e 68 3d 88 6c 96 be b1 5b 48 3e
       0.047707133 0.056700017 -0.29379678 0.19566227
000180 31 bf 33 3d a3 46 79 bd a9 b4 83 be 43 e1 64 3d
       0.043883506 -0.06085838 -0.2572377 0.05587889
000190 28 50 5e 3e c7 1d 25 be 7a 8b 8e 3c b6 73 a4 3e
       0.21710265 -0.1612464 0.017400492 0.3211953
0001a0 42 74 dd be 24 5c 11 be a5 e8 96 3b 10 52 90 bd
       -0.4325276 -0.14195305 0.00460537 -0.07046902
0001b0 e1 89 0e be e5 10 fa bd 1e 97 d2 3d 60 fd 80 be
       -0.13919784 -0.122102536 0.102827296 -0.2519331
0001c0 87 4f 6b 3d b0 f5 e0 3d e6 91 62 3d 1a 99 19 3e
       0.05744889 0.10984361 0.05531492 0.1499981
0001d0 66 3f eb 3d 56 ff f8 bb 77 39 17 3e 54 22 a9 bd
       0.11486702 -0.007598798 0.14768015 -0.08258501
0001e0 4f 09 00 be 51 36 09 3e e9 1e ce bd f6 fd 0a 3e
       -0.12503551 0.13399626 -0.100644894 0.13573441
0001f0 9d b3 13 bd a6 b4 30 bd 2f 63 82 bd e7 94 b7 bb
       -0.036059964 -0.04314103 -0.06366574 -0.0056024673
000200 53 47 16 be 40 4b 28 bd 9d df 05 be fa ba 81 3d
       -0.14675646 -0.04108739 -0.13073583 0.06334491
000210 51 c1 aa 3e 50 f1 eb bd 11 df 8b bd 5e 10 1b be
       0.33350614 -0.11520636 -0.06829656 -0.15142962
000220 ce c2 4d 3e db 24 45 3c 07 d1 6d 3d 66 fd dc bd
       0.20093843 0.012032713 0.058060672 -0.107905194
000230 d9 4d 38 be 65 3b 82 be 30 60 e9 3c 82 6f 33 3e
       -0.17998447 -0.2543594 0.028488249 0.17523006
000240 e2 4a db 3d ca 8d 9e 3d 52 e5 18 be e8 11 0d 3d
       0.10707642 0.07741888 -0.14931229 0.034440905
000250 c0 3a 18 3e 87 57 f4 3e 39 3a 20 3e a8 8c bf bd
       0.14866161 0.47723028 0.1564721 -0.09353
000260 cb 4b 45 bd 4c 05 80 be 89 43 1a 3e 1d 1a 85 3e
       -0.048167985 -0.2500404 0.15064825 0.25996485
000270 6c cd 7f 3e a1 b7 03 be c8 d1 4b 3d a5 ea 6a be
       0.24980706 -0.12863018 0.04976061 -0.22941072
000280 ae de 32 bc a6 5c 4e 3c 44 cb 87 3d 0f 6f 3b 3e
       -0.010917349 0.012595331 0.06630567 0.18304084
000290 10 d1 0b 3e fc c9 8d bd fe df 3a 3e 9b 02 48 be
       0.1365397 -0.06923291 0.18249509 -0.19532244
0002a0 0b 5c 91 3e 6b be 04 3e db 56 75 3d d4 44 c4 bd
       0.28390536 0.12963264 0.059897285 -0.095834404
0002b0 01 f8 39 3e 82 f9 8b bd 09 1b 66 3d 22 4c 56 3c
       0.18161012 -0.06834699 0.056178126 0.013079675
0002c0 10 1b bd 3d 7b 61 69 3b 75 3d ad bb 25 18 7f ba
       0.092336774 0.0035611081 -0.0052868673 -0.0009731076
0002d0 56 8b ad bd 15 50 1b 3d c9 71 0d be ad 6b 61 bd
       -0.08473842 0.03791817 -0.13812937 -0.05503433
0002e0 af 70 e1 3d 37 62 ad 3e 8f b7 40 3d 21 20 0f be
       0.11007821 0.33863994 0.047050055 -0.139771
0002f0 2c 3b 00 3e 34 d6 33 3c 58 d9 ce 3d 64 06 af 3c
       0.12522572 0.010976363 0.10100049 0.021365352
000300 e3 26 58 bd 5d 6d 13 3d fd f2 52 ba 02 ee 11 be
       -0.05277146 0.03599297 -0.00080470723 -0.14250949
000310 f7 e7 4b bd 21 92 f1 bd 4c bb 14 3d 60 04 01 3e
       -0.049781766 -0.1179545 0.036311433 0.12599325
000320 3e c8 c2 3d cf 22 25 3e 05 fe 31 be 70 e3 71 3e
       0.095108494 0.1612656 -0.17382057 0.23621917
000330 b2 de 83 3e 78 68 ee 3d 1b 22 59 be c1 66 84 bd
       0.2575584 0.116410196 -0.21204416 -0.06464911
000340 8d 62 95 bd 40 56 57 bd e4 c0 f8 3d af ee 7b 3d
       -0.07294188 -0.05257249 0.12146166 0.061506923
000350 62 84 c8 bc 0f 87 ad bc b5 21 4c bd e9 6b 3c 3e
       -0.024477188 -0.021182565 -0.049836833 0.1840054
000360 2c 83 e5 3b 0a 73 33 3e bd f0 58 3d 03 74 62 3e
       0.0070041623 0.17524353 0.05296396 0.22114567
000370 f0 f2 0e 3e 93 2a 01 be 9a 0b b4 3d 78 6c 2e 3e
       0.13959861 -0.12613897 0.08791275 0.17033565
000380 d1 af 53 be e3 9d 56 3e 88 f7 c8 3d e7 a2 2f bd
       -0.20672537 0.20958667 0.09812838 -0.042879965
000390 48 e7 b0 3b 91 07 39 3e 77 2d 7b bc 27 d4 b8 bd
       0.0053986646 0.18069293 -0.015330664 -0.0902484
0003a0 c9 84 c9 3e 6f e3 22 be 58 08 35 3e 6b e2 c2 bd
       0.3935912 -0.15907072 0.17678964 -0.09515842
0003b0 c9 b1 a5 bd 56 0c 15 3e 44 ef 12 be 3d 43 3c be
       -0.080905505 0.14555487 -0.14349085 -0.18385024
0003c0 c2 8f df bd 2a 23 9d 3c 7d 78 53 bd 6a 9f 6e 3d
       -0.109160915 0.019181807 -0.05162858 0.058257498
0003d0 53 4d 7d 3e 05 8c 92 be 44 26 db 3d 54 ab 54 bd
       0.24736528 -0.2862245 0.10700658 -0.051921204
0003e0 5f 67 81 3d 28 33 2b 3d c3 2c c7 3d 43 fb 5d 3d
       0.063185446 0.041796833 0.097253345 0.0541947
0003f0 fe 16 87 3d cc b2 82 bc 44 35 0d be 8e 95 30 be
       0.06596182 -0.015954398 -0.1378985 -0.1724455

linear_relu_stack.2.bias f4 [128]
000000 18 58 4a 3e c7 f3 d3 3e 37 16 8b bd b7 8e 72 3e
       0.19760168 0.41396925 -0.067913465 0.23687254
000010 5b 3c 67 be 10 43 20 bd ee e0 ca 3d 07 f5 f6 bd
       -0.22581618 -0.039126456 0.09906183 -0.12058454
000020 ab d5 c6 3d 92 27 1c 3e 9f d7 1a 3e b6 67 2f 3e
       0.09708723 0.1524947 0.15121315 0.17129406
000030 c5 ff c2 3b 65 02 ab 3d e6 2a cc 3d 82 6a 0c 3d
       0.0059509003 0.08350066 0.0996912 0.03428126
000040 9e 0e d3 3e f4 15 d6 3d 91 f0 12 be 45 91 c7 3e
       0.4122209 0.10453406 -0.14349581 0.3897802
000050 7b 77 90 3d 95 e6 a2 bd 01 53 8e be ee 84 67 3e
       0.07054039 -0.07954136 -0.27797702 0.22609302
000060 1f ac 72 bd 19 c3 26 3d 9d 2d 71 3e 01 29 6f 3e
       -0.05924618 0.040713403 0.23552556 0.23355485
000070 f3 88 6e 3e 82 a2 df bc cd 5b 33 3e 5b 6f af bc
       0.2329443 -0.02729917 0.17515488 -0.021415403
000080 b4 90 3e 3e a5 10 e2 3c 2d 29 31 3e 98 16 28 3e
       0.18609887 0.027595827 0.17300864 0.16414869
000090 c4 af 37 3e 1f 65 14 bd c5 1e a4 bd dc 04 97 bd
       0.17938143 -0.03622925 -0.08013681 -0.07373974
0000a0 d5 46 3a 3e 3d 40 b1 3e f2 e0 b5 3d 30 0f 5f 3c
       0.18191083 0.34619322 0.088807955 0.013614461
0000b0 98 36 a6 3e b6 c3 53 3e 77 d0 15 3e a6 60 4e 3d
       0.32463527 0.20680127 0.14630304 0.05038514
0000c0 39 79 6a 3e a8 32 fa bd 9a 43 f7 bd 60 65 92 3d
       0.22897805 -0.12216693 -0.12073441 0.07148242
0000d0 1a 56 69 bd 06 9a e3 3e 31 d7 67 3e c7 ba 00 bd
       -0.05696688 0.44453448 0.22640683 -0.031428125
0000e0 e6 ef 06 be 0f 51 97 3e f2 5d 40 bd 0b fd 90 3e
       -0.13177451 0.2955403 -0.046964593 0.28318056
0000f0 ee 67 93 bd 7d db 11 be 17 2c cd 3e d0 6d 22 3f
       -0.071975574 -0.14243884 0.400727 0.6344881
000100 3d 38 20 3d f3 34 8f 3e 90 c9 ab 3c e2 fd bc be
       0.039116133 0.27970085 0.020970136 -0.36912447
000110 ed 86 0b be 81 b5 f9 3e 4b 75 0d b9 e1 d0 a9 3e
       -0.13625689 0.4877129 -0.00013490503 0.33167174
000120 d5 c7 ef 3e 3a 31 c7 bc 20 46 7c bc 88 1d 85 3e
       0.46832147 -0.024315465 -0.0153975785 0.25999093
000130 55 89 ce 3d d8 e7 64 be 56 88 40 3e 27 a7 00 3e
       0.10084788 -0.22354066 0.18802008 0.12563764
000140 b1 08 89 3e c5 20 12 be 42 17 6c 3e 9e b7 ec 3d
       0.26764444 -0.14270313 0.23055747 0.1155846
000150 25 07 d1 bd 9f a6 e4 3e 99 80 c5 3e 1f 17 9e 3e
       -0.10206441 0.44658372 0.38574675 0.30877015
000160 62 32 e0 bd 0d 8c 95 be 6c 2a 0c 3d eb 46 05 3f
       -0.1094711 -0.29208413 0.034220144 0.5206134
000170 31 4f 47 bd 3c e6 eb 3e 12 ee fb 3c 5f c1 6b bd
       -0.048659507 0.46074092 0.03075317 -0.05755746
000180 ec 1a 2d 3d 32 08 94 3e 49 93 91 3e 82 01 83 3e
       0.042262003 0.28912503 0.28432682 0.25587088
000190 ed 87 99 3e 39 a3 3d 3e f1 a3 e1 3d 45 a7 8e bd
       0.29986516 0.18519296 0.110175975 -0.06965498
0001a0 ac 2b 79 3e da 01 e1 3e f8 11 d7 3e f9 e8 13 be
       0.24333066 0.43946725 0.42005897 -0.14444341
0001b0 ad 3a f2 3c 72 54 1b 3d f0 c9 11 3f d6 f6 de 3c
       0.029568994 0.03792233 0.5694876 0.02721731
0001c0 83 4f 1c be e0 0e f8 3d 2a 84 71 3d 39 44 c5 3e
       -0.15264706 0.12112212 0.058963932 0.38528612
0001d0 34 15 34 3e 1e 2a de 3e c3 96 0a 3f 1b 1f 60 3e
       0.17586213 0.43391508 0.54136294 0.21886866
0001e0 d6 bc 8f bc 56 31 9f 3e 59 04 dc 3e a6 f1 97 3b
       -0.017546099 0.31092328 0.42972067 0.004636961
0001f0 69 8b 1f 3e 50 39 15 be bf 35 44 3e a3 65 7c be
       0.15580525 -0.14572644 0.19161128 -0.24648146

linear_relu_stack.4.weight f4 [10, 128]
000000 32 f2 78 be 64 fb 37 be b8 0e 8d 3d f5 90 44 be
       -0.2431114 -0.17966992 0.06887573 -0.19195922
000010 88 22 18 3d 67 3e a5 bd 7c 9d 51 3d 70 49 2b bd
       0.037142307 -0.08068543 0.05117558 -0.041818082
000020 11 52 fa be 1d 7b f6 bd e3 99 92 3d 93 62 69 be
       -0.48890737 -0.12035201 0.07158258 -0.2279151
000030 b7 98 1b bd 28 34 3e 3d 3e cc 88 3c 1b c3 f5 bd
       -0.037987437 0.04643646 0.016698953 -0.12000104
000040 b3 82 a2 3d 17 1c 07 3e 8d 9d 9d 3d 23 9f c2 3d
       0.07935085 0.13194309 0.07696066 0.09503009
000050 6c d5 62 be 38 c7 12 3e 31 c2 c1 bc f1 cc 8d 3c
       -0.22151726 0.14333808 -0.023652168 0.017309638
000060 c9 4b ef bd 9c 23 22 bc a0 c9 f4 bd 87 c5 ce bb
       -0.11684377 -0.009896185 -0.119525194 -0.006310168
000070 21 90 ec bc 62 32 c2 3d f7 59 f8 3d 0c 15 73 bd
       -0.02887732 0.09482266 0.121265344 -0.059346244
000080 60 52 71 bd 3c b1 d4 3c 70 50 f5 ba 23 86 09 bc
       -0.05891645 0.025963418 -0.0018715989 -0.008393797
000090 7c d8 5f be 2c 44 b9 be 6b db 0c bf 34 81 20 3e
       -0.21859926 -0.36184824 -0.55022305 0.15674287
0000a0 99 2d 94 3d f4 bb a2 3d 59 ab a5 bd 15 1a 0e 3d
       0.072352596 0.079460055 -0.080893226 0.034692843
0000b0 ba 3d 78 3d ed 46 2c be 9e 85 b2 be 46 8e 4d 3e
       0.060605742 -0.16823931 -0.34867567 0.20073804
0000c0 30 e5 c9 bd 67 83 1a 3e 5b 1c 1e be 2f fd 2d 3c
       -0.09858167 0.15089189 -0.15440504 0.010619446
0000d0 82 88 32 b9 54 ee 20 3e 89 ba 04 ba c1 33 dc bc
       -0.00017026256 0.15715915 -0.00050631963 -0.026880147
0000e0 cf b4 05 be 55 53 8c be 19 8c f2 bc e8 a6 92 3d
       -0.13057254 -0.27407327 -0.02960782 0.07160741
0000f0 b1 66 ee bc d6 40 c8 3c 4f 0d 20 3e 7f 06 99 3d
       -0.029101701 0.024444979 0.15630077 0.07471942
000100 57 c0 56 be 65 7e c3 3d 7e 97 b4 3d 7b 9c 02 3e
       -0.2097181 0.09545592 0.08817957 0.12755005
000110 81 77 84 3d 30 a2 78 be 0e ed cd bd c4 f2 08 3e
       0.06468106 -0.2428062 -0.1005498 0.13373858
000120 ce 8e 5d be aa 1c b9 be d7 06 0b be 69 43 ed bd
       -0.21636507 -0.3615468 -0.13576828 -0.11585123
000130 9c 26 0e be c2 74 1e bb 18 e8 79 bd 0c 0c da 3d
       -0.13881916 -0.002417848 -0.061012357 0.10646829
000140 9a 9b a0 3d 06 bf 87 be 43 31 42 bd 85 68 80 3d
       0.07842179 -0.26512927 -0.04741026 0.062699355
000150 f2 72 80 be 9a 5f 81 bd bf c6 a1 3d 4e ae 87 be
       -0.25087696 -0.06317063 0.07899236 -0.2650017
000160 00 1f 04 be ea 9a 42 3c 27 c7 89 be 9b 1a a3 bd
       -0.1290245 0.011877755 -0.26909754 -0.07964059
000170 8a be 9b 3d e1 12 a1 bd 95 36 81 bd 04 64 c8 be
       0.07604702 -0.07864929 -0.06309239 -0.39138806
000180 dc 45 a1 bd 8c cc 4e 3c 18 76 e5 3d f7 f4 06 be
       -0.07874653 0.01262201 0.11204165 -0.13179384
000190 59 d7 8d 3e ec 6c 87 be dc cc 71 3d 5b 00 61 bd
       0.2770336 -0.26450288 0.05903326 -0.05493198
0001a0 cc da 13 3e 3a 07 9f be e6 60 b4 3d 1b 42 2e 3c
       0.14438933 -0.310602 0.088075444 0.010635878
0001b0 06 a2 8d 3d 37 9c 83 3d 9c 97 20 bd 1a 35 27 3e
       0.06915669 0.0642628 -0.039207086 0.1632885
0001c0 81 d1 24 bc fe d6 d8 bd 15 8d dc 3d 13 0f d6 be
       -0.010059715 -0.105878815 0.10769097 -0.41808376
0001d0 7d 7e e7 bd 07 fd 9d 3d 52 e1 c0 be e2 fd 8d 3c
       -0.113034226 0.07714277 -0.37671906 0.017332975
0001e0 5b 8a 0c be 3f 90 c2 be fa fc 47 3e b3 6a 27 3e
       -0.13724653 -0.38000676 0.19530097 0.16349296
0001f0 16 c7 7e be 34 9b 24 3d 3f 41 8f be a6 a5 fd bd
       -0.24880633 0.040187076 -0.27979466 -0.123851106
000200 79 cd 4b bc 25 44 d9 bb 28 f6 67 be 45 ef 8e 3d
       -0.012439125 -0.006630438 -0.22652495 0.06979231
000210 b4 8f 93 bd 09 e5 cf 3a d8 f4 4b be 88 6b 6c bc
       -0.072051436 0.0015861104 -0.19917619 -0.014429934
000220 e6 ef f6 3d 00 0e 49 3e 45 5a 53 be d5 ad fb bd
       0.12057476 0.19634247 -0.20639904 -0.12289015
000230 d9 6a 0a be 0a 3e 27 3d a6 10 89 be 1c c9 4b 3d
       -0.13517322 0.04083065 -0.26770514 0.04975234
000240 4c 6d 5b be f0 91 1d 3c 06 11 85 bd 3e bd e8 bd
       -0.21428412 0.009617314 -0.064973876 -0.1136422
000250 da df e8 bd 46 de 8b be 6f 29 c5 3c f6 3d 07 bf
       -0.11370821 -0.2731802 0.024067609 -0.5282892
000260 f9 f0 9c be e8 b3 08 3d 48 dc 09 3d 3e d4 ff 3d
       -0.30652598 0.033374697 0.033657342 0.12491654
000270 f0 6a ba be 78 25 88 be 57 88 38 be 14 66 f1 bc
       -0.36409712 -0.26591086 -0.1802076 -0.02946762
000280 9d d7 f8 3c 3c c5 18 3e f0 61 9a 3d 66 d7 76 bc
       0.03037625 0.14918989 0.07538211 -0.015066003
000290 81 70 a2 be 23 62 b2 be 33 36 5a 3e 55 52 54 bd
       -0.3172646 -0.34840497 0.21309738 -0.05183633
0002a0 05 43 5b 3d 7a 44 b9 3d 2b 3b 43 bf c9 20 d9 3d
       0.05353071 0.09046264 -0.7626216 0.106019564
0002b0 59 b7 aa bc 52 83 f4 3d 48 89 af be fe b1 32 3e
       -0.02083938 0.1193911 -0.34284425 0.17450711
0002c0 f5 f8 a2 be cf ac 73 be 61 9f 97 3e 27 cc a3 be
       -0.31830564 -0.2379639 0.29613784 -0.31991693
0002d0 73 0f 6f be 8d 64 ae be ba 35 25 bd 72 97 9a 3d
       -0.23345737 -0.3406109 -0.04033444 0.07548417
0002e0 58 bb 47 bd 3a 44 15 be 9f a3 94 bd c2 67 fb 3d
       -0.04876265 -0.14576808 -0.07257771 0.122756496
0002f0 6e 01 e3 3c 38 a6 f5 3c 29 7f f7 be 2e 5c c6 be
       0.027710643 0.029986486 -0.48339203 -0.38742203
000300 97 88 49 bc 2a 4f 41 3d a7 76 45 be 9b 93 de 3c
       -0.012300632 0.047194637 -0.19283544 0.027169993
000310 b8 aa 8e bc 9f 03 22 be c0 6e c8 bd 23 03 91 bb
       -0.01741539 -0.15821694 -0.09786749 -0.0044254228
000320 7a 0a 36 be d0 35 d8 3d 3c aa 4a bc 18 b0 01 3e
       -0.17777434 0.10557139 -0.012369689 0.1266483
000330 81 10 1b be 36 9e b4 3e 5b ff 3b 3e 75 b1 bc bc
       -0.15143014 0.35276955 0.18359129 -0.023033837
000340 f5 42 32 3e e3 48 69 3e 84 50 42 be e1 b4 18 3d
       0.17408355 0.2278171 -0.18976027 0.037281875
000350 1c 61 3b be b3 a9 99 3c 4f c9 ba 3c ef ab d2 3d
       -0.18298763 0.018757677 0.02280107 0.102867
000360 1c 55 bd bd 08 00 14 3e 30 3f d4 bd ef ab 48 3d
       -0.09244749 0.14453137 -0.103636146 0.048992094
000370 60 77 23 bd 66 20 a1 be bf 59 b8 3d bf ce 28 3f
       -0.039908767 -0.3147003 0.09001493 0.6594047
000380 37 81 00 be d2 1f ab be 5d 9e b9 be 8c 47 7f bd
       -0.12549292 -0.33422714 -0.36253634 -0.06232409
000390 25 01 38 be b5 db 9c bd 9c 37 84 be 33 f3 2f be
       -0.17969187 -0.07659093 -0.25823677 -0.17182617
0003a0 82 e7 fa 3d f0 77 f7 3c 6c 9a 60 be 59 d6 af bc
       0.12251188 0.030208558 -0.21933907 -0.021464514
0003b0 44 6e 11 bd 6c 35 0d be 27 c5 ad be a9 73 a7 3e
       -0.035505548 -0.1378991 -0.33939478 0.3270543
0003c0 e5 44 37 3e ba ae 72 be 92 24 76 be 97 41 a3 be
       0.17897375 -0.23699465 -0.24037388 -0.3188598
0003d0 8d bd 20 bd 21 7b e2 be fc 9b 26 3e b8 02 27 be
       -0.03924327 -0.44234565 0.16270441 -0.16309631
0003e0 17 7f 9d 3c af ff 2e bd cb 2a 5f bf 6f 55 45 bd
       0.01922564 -0.042724308 -0.8717467 -0.04817718
0003f0 46 6e 15 bd 55 ad 50 be d1 9c de 3d 76 68 08 3e
       -0.036482118 -0.20378621 0.10869754 0.13321099

linear_relu_stack.4.bias f4 [10]
000000 7e 40 bb bd 1a d1 39 be 6e 10 0d bc f9 35 16 3e
       -0.0914316 -0.18146172 -0.008609874 0.14669026
000010 7a 36 1f be e8 04 22 3d 6d 5d 1d 3e 28 a4 42 3e
       -0.15548125 0.03955546 0.1536767 0.19007933
000020 2a c9 ab 3d bd a8 b3 be
       0.083879784 -0.35089675
